iris_model.pt (torch, 3046 bytes, 6 tensors)

fc1.weight f4 [8, 4]
000000 80 f0 86 be ba f8 8b be 18 df 99 3e 3c 60 a9 be
       -0.26355362 -0.273382 0.3005302 -0.33081234
000010 c0 ae 70 be 82 42 8b 3e 1a 5e be be 64 19 7b 3e
       -0.23504162 0.2719918 -0.3718117 0.24521405
000020 f7 e8 fd 3d f6 ef a9 be 42 d3 3f 3f 81 cf 6d 3f
       0.1239795 -0.33190888 0.7493173 0.9289475
000030 2d 95 3b 3f 85 82 8b be 40 5c 36 3e e1 43 86 3f
       0.732745 -0.27248016 0.17808628 1.0489465
000040 27 1f 59 3f de 83 25 3f 1d 3b 78 bf b4 33 83 bf
       0.8481316 0.6465434 -0.969652 -1.0250154
000050 54 09 e2 be 7a a7 a9 3e 70 b9 31 bd 66 61 b0 3e
       -0.44147742 0.33135587 -0.043389738 0.3444931
000060 4b 4f 23 3d ef 48 7b be 0b 4a d6 be de 3e 43 3e
       0.03987054 -0.2453954 -0.41853365 0.1906695
000070 98 42 a4 be 48 92 e3 bd ec 2f 98 3e de 66 8b be
       -0.32082057 -0.11111885 0.2972406 -0.2722692

fc1.bias f4 [8]
000000 60 61 c8 bc 30 fc 8a bd 3e 39 14 bf ef 8a 1d 3e
       -0.024460495 -0.06786382 -0.57899845 0.1538503
000010 13 57 8f 3f 2c 3b 40 be 95 3d 97 3e cc 85 26 be
       1.1198448 -0.18772572 0.2953917 -0.16261977

fc2.weight f4 [9, 8]
000000 32 24 15 3e fe cf 15 3e 6a 81 9c bd 7e 1e cd be
       0.14564589 0.14630124 -0.07641871 -0.40062326
000010 37 44 84 3e a4 40 a7 bd 01 8d 76 3e 7b 24 59 be
       0.25833294 -0.08166626 0.24077226 -0.21205322
000020 af c5 13 bd 27 30 9b 3e 1e 13 9d be ec 8e 5f 3c
       -0.036077198 0.30310175 -0.30678648 0.013644915
000030 78 23 97 bb ca b6 9a be 71 42 8c bd 4a ed a5 be
       -0.0046123825 -0.30217582 -0.0684861 -0.324076
000040 fa 71 9c 3d 91 e2 73 3d 2f 2a 49 3f 5c bc b6 bd
       0.07638927 0.059542242 0.7857999 -0.089226454
000050 d2 77 56 bf f2 87 02 be 5b 97 8a be fa d2 8c 3e
       -0.8377658 -0.12747172 -0.270686 0.27504712
000060 29 0a e8 3d 9d 3b b4 be ae 29 ea be e4 ce 27 be
       0.11330063 -0.3520173 -0.45734924 -0.16387516
000070 90 9f 55 3f d9 ca d3 bd f3 38 c0 3e a7 be df 3d
       0.834466 -0.103414245 0.3754345 0.10925036
000080 3f 18 a3 be ad 4c 98 3d 7a ec af 3e 31 e7 c6 3e
       -0.31854436 0.074365 0.34360105 0.3884826
000090 16 16 9d bf cf e1 d3 bc 47 45 6f 3e ea 4d 00 3e
       -1.2272365 -0.02586451 0.23366271 0.12529722
0000a0 7f 59 2a 3e aa 43 99 3e dd e0 2d 3f 57 b6 ca 3e
       0.16635703 0.29934436 0.6792124 0.3959224
0000b0 79 8c a8 be 71 a0 be 3c 31 1d 3a 3e 0d fc a6 bd
       -0.32919672 0.023269864 0.18175198 -0.081535436
0000c0 d2 94 3e 3d 7c ff a0 3b 16 8d d1 3e 9e c2 2e 3f
       0.046528645 0.0049132686 0.40927953 0.6826571
0000d0 a5 ad ac be c7 f6 99 be 2b 7e de 3d 9a a1 ef bd
       -0.3372623 -0.3007109 0.108639084 -0.11700745
0000e0 05 88 0d 3d bd 24 a4 be 1d a6 0f 3e b5 45 78 be
       0.034553546 -0.3205928 0.14028211 -0.24245341
0000f0 aa 37 24 bd 65 65 9b 3e 95 41 ad 3d f4 ee 96 3e
       -0.040092148 0.30350795 0.084597744 0.29479182
000100 c2 3d 44 be 2f 66 a8 be f7 ec 90 be 7b 01 f8 bd
       -0.19164184 -0.3289046 -0.2830579 -0.121096574
000110 c8 7a e1 bd 92 8c c4 bc 1e 06 4f 3e 6f de 9d 3e
       -0.11009747 -0.02399281 0.20217177 0.30833766

fc2.bias f4 [9]
000000 b6 1b d5 be 3c 08 52 be 2f 2c 77 be 44 2f b5 3e
       -0.41622704 -0.20510954 -0.24137948 0.35387623
000010 52 bf f1 be 2c e5 b5 be 56 88 2e be af de a0 be
       -0.47216278 -0.35526407 -0.17044196 -0.31419894
000020 55 5a 99 3e
       0.2995173

out.weight f4 [3, 9]
000000 b0 0e 20 bd 2b b0 d2 bd e3 5e c6 be ab e0 5d 3f
       -0.039076507 -0.102875076 -0.38744268 0.8667094
000010 48 47 14 bd ac 32 06 bf 40 a7 1a bf 00 1c 95 3e
       -0.03620079 -0.5242107 -0.60411453 0.29122925
000020 96 b8 90 bd 58 5e 11 3c 3a 1e 81 be 08 80 28 be
       -0.07066457 0.008872591 -0.25218374 -0.1645509
000030 ae 60 31 bf 1a eb 93 bf 3a 41 09 3f bb c2 2b 3f
       -0.69288146 -1.1556122 0.5361515 0.6709401
000040 f6 ea 05 3d 13 f1 13 be 73 d3 f9 bd 63 e5 83 3e
       0.03269478 -0.14447431 -0.12198534 0.25760946
000050 84 3d 86 3f e7 a8 e2 be 52 ad 99 3f 55 db df 3e
       1.0487523 -0.44269487 1.2006018 0.43722025
000060 91 b6 69 3e a2 9e 9e be 57 8b 95 be
       0.2282355 -0.30980402 -0.2920787

out.bias f4 [3]
000000 59 fb 4b 3f 33 52 69 3f 1e 93 79 bf
       0.796804 0.9114105 -0.9749011
